2025-03-07 14:29:30,912 - INFO - ======== Starting Model Training ========
2025-03-07 14:29:30,912 - INFO - Loading dataset...
2025-03-07 14:29:31,428 - INFO - Dataset loaded successfully!
2025-03-07 14:29:31,428 - INFO - Initializing the model...
2025-03-07 14:29:31,500 - INFO - Model initialized with 453,317 trainable parameters
2025-03-07 14:29:31,500 - INFO - Model Architecture: 
MobileNetV2ForCIFAR8M(
  (mobilenet_v2): MobileNetV2(
    (features): Sequential(
      (0): Conv2dNormActivation(
        (0): Conv2d(3, 32, kernel_size=(3, 3), stride=(2, 2), padding=(1, 1), bias=False)
        (1): BatchNorm2d(32, eps=1e-05, momentum=0.1, affine=True, track_running_stats=True)
        (2): ReLU6(inplace=True)
      )
      (1): InvertedResidual(
        (conv): Sequential(
          (0): Conv2dNormActivation(
            (0): Conv2d(32, 32, kernel_size=(3, 3), stride=(1, 1), padding=(1, 1), groups=32, bias=False)
            (1): BatchNorm2d(32, eps=1e-05, momentum=0.1, affine=True, track_running_stats=True)
            (2): ReLU6(inplace=True)
          )
          (1): Conv2d(32, 16, kernel_size=(1, 1), stride=(1, 1), bias=False)
          (2): BatchNorm2d(16, eps=1e-05, momentum=0.1, affine=True, track_running_stats=True)
        )
      )
      (2): InvertedResidual(
        (conv): Sequential(
          (0): Conv2dNormActivation(
            (0): Conv2d(16, 96, kernel_size=(1, 1), stride=(1, 1), bias=False)
            (1): BatchNorm2d(96, eps=1e-05, momentum=0.1, affine=True, track_running_stats=True)
            (2): ReLU6(inplace=True)
          )
          (1): Conv2dNormActivation(
            (0): Conv2d(96, 96, kernel_size=(3, 3), stride=(2, 2), padding=(1, 1), groups=96, bias=False)
            (1): BatchNorm2d(96, eps=1e-05, momentum=0.1, affine=True, track_running_stats=True)
            (2): ReLU6(inplace=True)
          )
          (2): Conv2d(96, 24, kernel_size=(1, 1), stride=(1, 1), bias=False)
          (3): BatchNorm2d(24, eps=1e-05, momentum=0.1, affine=True, track_running_stats=True)
        )
      )
      (3): InvertedResidual(
        (conv): Sequential(
          (0): Conv2dNormActivation(
            (0): Conv2d(24, 144, kernel_size=(1, 1), stride=(1, 1), bias=False)
            (1): BatchNorm2d(144, eps=1e-05, momentum=0.1, affine=True, track_running_stats=True)
            (2): ReLU6(inplace=True)
          )
          (1): Conv2dNormActivation(
            (0): Conv2d(144, 144, kernel_size=(3, 3), stride=(1, 1), padding=(1, 1), groups=144, bias=False)
            (1): BatchNorm2d(144, eps=1e-05, momentum=0.1, affine=True, track_running_stats=True)
            (2): ReLU6(inplace=True)
          )
          (2): Conv2d(144, 24, kernel_size=(1, 1), stride=(1, 1), bias=False)
          (3): BatchNorm2d(24, eps=1e-05, momentum=0.1, affine=True, track_running_stats=True)
        )
      )
      (4): InvertedResidual(
        (conv): Sequential(
          (0): Conv2dNormActivation(
            (0): Conv2d(24, 144, kernel_size=(1, 1), stride=(1, 1), bias=False)
            (1): BatchNorm2d(144, eps=1e-05, momentum=0.1, affine=True, track_running_stats=True)
            (2): ReLU6(inplace=True)
          )
          (1): Conv2dNormActivation(
            (0): Conv2d(144, 144, kernel_size=(3, 3), stride=(2, 2), padding=(1, 1), groups=144, bias=False)
            (1): BatchNorm2d(144, eps=1e-05, momentum=0.1, affine=True, track_running_stats=True)
            (2): ReLU6(inplace=True)
          )
          (2): Conv2d(144, 32, kernel_size=(1, 1), stride=(1, 1), bias=False)
          (3): BatchNorm2d(32, eps=1e-05, momentum=0.1, affine=True, track_running_stats=True)
        )
      )
    )
    (classifier): Sequential(
      (0): Flatten(start_dim=1, end_dim=-1)
      (1): Linear(in_features=512, out_features=512, bias=True)
      (2): ReLU()
      (3): Dropout(p=0.8, inplace=False)
      (4): Linear(in_features=512, out_features=256, bias=True)
      (5): ReLU()
      (6): Dropout(p=0.8, inplace=False)
      (7): Linear(in_features=256, out_features=128, bias=True)
      (8): ReLU()
      (9): Dropout(p=0.8, inplace=False)
      (10): Linear(in_features=128, out_features=5, bias=True)
    )
  )
)
2025-03-07 14:29:31,503 - INFO - Starting training for 350 epochs...
2025-03-07 14:29:31,999 - INFO - Tr_Loss: 1.6363, val_loss: 1.6104, Tr_acc: 19.82857142857143, val_ac: 20.0
2025-03-07 14:29:32,140 - INFO - Tr_Loss: 1.6364, val_loss: 1.6100, Tr_acc: 18.685714285714287, val_ac: 21.333333333333332
2025-03-07 14:29:32,270 - INFO - Tr_Loss: 1.6285, val_loss: 1.6095, Tr_acc: 20.285714285714285, val_ac: 22.0
…
