2025-03-08 17:17:55,744 - INFO - ======== Starting Model Training ========
2025-03-08 17:17:55,744 - INFO - Loading dataset...
2025-03-08 17:17:56,466 - INFO - Dataset loaded successfully!
2025-03-08 17:17:56,466 - INFO - Initializing the model...
2025-03-08 17:17:56,548 - INFO - Model initialized with 453,446 trainable parameters
2025-03-08 17:17:56,548 - INFO - Model Architecture: 
MobileNetV2ForCIFAR8M(
  (mobilenet_v2): MobileNetV2(
    (features): Sequential(
      (0): Conv2dNormActivation(
        (0): Conv2d(3, 32, kernel_size=(3, 3), stride=(2, 2), padding=(1, 1), bias=False)
        (1): BatchNorm2d(32, eps=1e-05, momentum=0.1, affine=True, track_running_stats=True)
        (2): ReLU6(inplace=True)
      )
      (1): InvertedResidual(
        (conv): Sequential(
          (0): Conv2dNormActivation(
            (0): Conv2d(32, 32, kernel_size=(3, 3), stride=(1, 1), padding=(1, 1), groups=32, bias=False)
            (1): BatchNorm2d(32, eps=1e-05, momentum=0.1, affine=True, track_running_stats=True)
            (2): ReLU6(inplace=True)
          )
          (1): Conv2d(32, 16, kernel_size=(1, 1), stride=(1, 1), bias=False)
          (2): BatchNorm2d(16, eps=1e-05, momentum=0.1, affine=True, track_running_stats=True)
        )
      )
      (2): InvertedResidual(
        (conv): Sequential(
          (0): Conv2dNormActivation(
            (0): Conv2d(16, 96, kernel_size=(1, 1), stride=(1, 1), bias=False)
            (1): BatchNorm2d(96, eps=1e-05, momentum=0.1, affine=True, track_running_stats=True)
            (2): ReLU6(inplace=True)
          )
          (1): Conv2dNormActivation(
            (0): Conv2d(96, 96, kernel_size=(3, 3), stride=(2, 2), padding=(1, 1), groups=96, bias=False)
            (1): BatchNorm2d(96, eps=1e-05, momentum=0.1, affine=True, track_running_stats=True)
            (2): ReLU6(inplace=True)
          )
          (2): Conv2d(96, 24, kernel_size=(1, 1), stride=(1, 1), bias=False)
          (3): BatchNorm2d(24, eps=1e-05, momentum=0.1, affine=True, track_running_stats=True)
        )
      )
      (3): InvertedResidual(
        (conv): Sequential(
          (0): Conv2dNormActivation(
            (0): Conv2d(24, 144, kernel_size=(1, 1), stride=(1, 1), bias=False)
            (1): BatchNorm2d(144, eps=1e-05, momentum=0.1, affine=True, track_running_stats=True)
            (2): ReLU6(inplace=True)
          )
          (1): Conv2dNormActivation(
            (0): Conv2d(144, 144, kernel_size=(3, 3), stride=(1, 1), padding=(1, 1), groups=144, bias=False)
            (1): BatchNorm2d(144, eps=1e-05, momentum=0.1, affine=True, track_running_stats=True)
            (2): ReLU6(inplace=True)
          )
          (2): Conv2d(144, 24, kernel_size=(1, 1), stride=(1, 1), bias=False)
          (3): BatchNorm2d(24, eps=1e-05, momentum=0.1, affine=True, track_running_stats=True)
        )
      )
      (4): InvertedResidual(
        (conv): Sequential(
          (0): Conv2dNormActivation(
            (0): Conv2d(24, 144, kernel_size=(1, 1), stride=(1, 1), bias=False)
            (1): BatchNorm2d(144, eps=1e-05, momentum=0.1, affine=True, track_running_stats=True)
            (2): ReLU6(inplace=True)
          )
          (1): Conv2dNormActivation(
            (0): Conv2d(144, 144, kernel_size=(3, 3), stride=(2, 2), padding=(1, 1), groups=144, bias=False)
            (1): BatchNorm2d(144, eps=1e-05, momentum=0.1, affine=True, track_running_stats=True)
            (2): ReLU6(inplace=True)
          )
          (2): Conv2d(144, 32, kernel_size=(1, 1), stride=(1, 1), bias=False)
          (3): BatchNorm2d(32, eps=1e-05, momentum=0.1, affine=True, track_running_stats=True)
        )
      )
    )
    (classifier): Sequential(
      (0): Flatten(start_dim=1, end_dim=-1)
      (1): Linear(in_features=512, out_features=512, bias=True)
      (2): ReLU()
      (3): Dropout(p=0.7, inplace=False)
      (4): Linear(in_features=512, out_features=256, bias=True)
      (5): ReLU()
      (6): Dropout(p=0.7, inplace=False)
      (7): Linear(in_features=256, out_features=128, bias=True)
      (8): ReLU()
      (9): Dropout(p=0.7, inplace=False)
      (10): Linear(in_features=128, out_features=6, bias=True)
    )
  )
)
2025-03-08 17:17:56,560 - INFO - Starting training for 70 epochs...
2025-03-08 17:17:57,269 - INFO - Tr_Loss: 1.7978, val_loss: 1.7896, Tr_acc: 16.476190476190474, val_ac: 22.77777777777778
2025-03-08 17:17:57,574 - INFO - Tr_Loss: 1.7954, val_loss: 1.7873, Tr_acc: 18.285714285714285, val_ac: 30.444444444444443
2025-03-08 17:17:57,862 - INFO - Tr_Loss: 1.7913, val_loss: 1.7851, Tr_acc: 21.238095238095237, val_ac: 35.77777777777778
…
